Models/dependency_nn_checkpoint_epoch0.pth (torch, 5560 bytes, 5 tensors)

fc1.weight f4 [32, 2]
0.20301445 -0.11635978 -0.6782714 -0.19713405 -0.42371237 0.4899812 0.7070599 0.051130615
0.53482956 -0.24476482 0.65969425 -0.2554168 -0.16213562 -0.3505845 0.16247171 0.059314188
-0.42927113 -0.45534214 0.10068882 -0.3631531 0.34691218 -0.6907671 -0.025103843 -0.48123053
-0.01276373 -0.40682155 0.44327894 -0.5767753 0.4462262 0.29589328 0.14969954 -0.3107385
-0.3619743 0.20777076 -0.3694729 0.57031506 -0.6060647 -0.42020217 -0.38459665 -0.4193045
-0.49071053 0.39639726 0.54302824 -0.25618187 -0.20771722 -0.2709325 0.342665 0.34281445
-0.21509703 0.43639994 0.38737816 -0.04099501 0.2404211 0.10742185 0.52722675 0.57175034
0.6355285 0.44073004 -0.5801569 -0.505665 0.09636843 0.5421138 -0.62016517 0.26891348
00000000: 05e3 4f3e 094e eebd 32a3 2dbf 82dd 49be
00000010: d4f0 d8be d1de fa3e e101 353f 566e 513d
00000020: 97ea 083f a1a3 7abe b9e1 283f fec5 82be
00000030: e106 26be d07f b3be fc5e 263e 6ff3 723d
00000040: 6dc9 dbbe 9b22 e9be f135 ce3d 34ef b9be
00000050: 799e b13e 1dd6 30bf 93a6 cdbc d963 f6be
00000060: f71e 51bc ea4a d0be 75f5 e23e 8ca7 13bf
00000070: c377 e43e 537f 973e d64a 193e 1e19 9fbe
00000080: b254 b9be dcc1 543e 8d2b bdbe 2b00 123f
00000090: 0e27 1bbf bd24 d7be dae9 c4be 14af d6be
000000a0: 693e fbbe 95f4 ca3e e603 0b3f 452a 83be
000000b0: d3b3 54be aab7 8abe c971 af3e 6085 af3e
000000c0: 6542 5cbe d06f df3e 6e56 c63e 62ea 27bd
000000d0: f330 763e fdff db3d 55f8 063f 3b5e 123f
000000e0: ffb1 223f 5ea7 e13e 2a85 14bf 4373 01bf
000000f0: d05c c53d f8c7 0a3f 25c3 1ebf 07af 893e

fc1.bias f4 [32]
-0.5756776 -0.18965533 -0.5225003 -0.25607893 0.31651264 -0.27112418 0.64075285 -0.31629768
-0.5295066 -0.27523932 0.27944848 -0.3008667 0.5173887 0.036156602 -0.19415106 -0.22597842
0.3940522 0.46574482 0.58409727 -0.13124157 -0.1483515 0.45707378 0.21310738 -0.5302236
-0.111471586 0.12631647 0.49361408 0.5500028 0.6090073 0.6607726 0.066736914 0.2580415
00000000: 9b5f 13bf 0235 42be 94c2 05bf c71c 83be
00000010: f20d a23e cad0 8abe 6108 243f c5f1 a1be
00000020: bf8d 07bf 2bec 8cbe df13 8f3e 330b 9abe
00000030: 9673 043f f218 143d 89cf 46be e366 67be
00000040: 36c1 c93e 1b76 ee3e 6687 153f 3164 06be
00000050: 75e9 17be 9305 ea3e d238 5a3e bcbc 07bf
00000060: 374b e4bd 1b59 013e fcba fc3e fccc 0c3f
00000070: e7e7 1b3f 6528 293f 5dad 883d 041e 843e

fc2.weight f4 [16, 32]
0.117357016 -0.026307557 0.12780797 -0.11088568 0.041031346 0.08588904 -0.014198332 -0.10249024
0.053596333 0.003863117 -0.15846565 -0.0492849 0.16870959 -0.0072231055 -0.14353164 -0.048198357
0.18352325 -0.15611395 0.13291402 0.06901833 0.036575224 -0.068716 0.01201717 -0.0057123518
-0.041025404 0.17380065 0.1382367 -0.059146725 -0.05337948 0.16100462 0.16288406 0.117575414
-0.1413279 -0.13601923 0.03867241 -0.024143947 0.14673448 -0.029403832 -0.09166756 0.011612721
0.13943496 0.052166566 -0.13762838 -0.042019796 -0.053846367 -0.037568066 0.022604872 0.08617589
0.12554507 -0.12536052 0.11426466 0.15970372 0.005478142 0.10567528 0.13222945 -0.15291831
-0.08978109 -0.13378152 0.12755325 0.16030288 0.1361833 0.04235561 -0.014133912 0.12327727
0.015019914 -0.0712935 -0.05309841 -0.10795009 -0.13839762 0.12444093 -0.11814695 -0.14874141
-0.008090319 -0.16997816 0.13297808 0.12010646 -0.12044189 -0.014678019 -0.09252129 -0.098180324
0.06972294 -0.00023705495 -0.12565894 -0.054548725 0.088948965 0.05994251 -0.041883767 -0.021028453
-0.04037097 -0.10903309 -0.058637455 -0.03265405 0.06917853 0.13791244 -0.08243936 0.092351355
0.0909019 -0.13844971 -0.11959779 0.17131324 -0.025889492 -0.17142095 -0.18323871 0.14439365
-0.14511086 0.14903866 0.013935846 0.11485018 0.16079521 0.12205852 -0.10157076 -0.04853041
-0.14231259 0.02747938 0.048578646 -0.0125739435 -0.04434405 -0.02730673 0.08925894 0.16563542
-0.024098197 0.15735313 0.006306491 0.15460305 0.14176513 0.08922801 0.082825914 -0.08137778
0.027071742 -0.0929193 -0.0731864 0.1039839 -0.16557275 -0.027568653 -0.06995879 0.0798055
0.020356527 0.012769758 -0.09309606 0.15228018 -0.11693401 -0.10340491 0.047491025 -0.09857024
-0.02769853 -0.009861835 -0.12772076 -0.12298587 -0.05227467 0.14729665 -0.02357958 -0.0040149507
-0.08030414 0.15985826 0.07144959 -0.056795552 -0.12667581 -0.08083051 -0.077528305 -0.16162883
0.028167728 0.17432356 0.058947615 -0.07076142 0.10778393 -0.00047436278 0.16804649 -0.122320585
-0.006230147 0.12110834 -0.025625823 0.05879681 0.100579396 0.063628554 0.086700805 0.14125009
0.0399548 0.12965734 -0.04566454 -0.002773073 -0.029902788 0.11638847 0.029588968 -0.15079042
-0.017260125 0.18012333 -0.098505035 0.03438922 -0.058337037 0.013236282 0.061308023 -0.0528371
0.15365127 -0.14710836 -0.15939613 0.11906493 0.12733375 0.06671945 0.16459921 -0.15519327
0.08649127 -0.06443785 0.0016544827 0.11272908 0.028879194 -0.16662706 0.0015918653 0.03962029
0.13981175 -0.13247381 -0.017692247 0.15905887 0.08031379 -0.07215741 0.12734315 -0.079546124
-0.12482453 0.041748423 0.029276775 -0.041197512 -0.033481162 -0.06365082 0.06854643 -0.06400754
0.1181283 0.15843035 -0.04633146 0.1475212 0.059457358 -0.12854078 0.06826685 0.082063645
0.04462835 -0.08727628 -0.1641974 -0.083441146 0.14700939 -0.07884236 -0.12964755 0.1588959
-0.023191156 0.12888238 -0.047099713 -0.15366323 0.13987347 0.058777742 -0.116576225 -0.02776942
-0.07586862 0.032092653 0.07158977 0.015606198 -0.04156048 -0.09299725 -0.05798477 0.00391127
00000000: e058 f03d f282 d7bc 18e0 023e 0818 e3bd
00000010: 7c10 283d 98e6 af3d 1fa0 68bc 67e6 d1bd
00000020: d487 5b3d 592c 7d3b d244 22be f7de 49bd
00000030: 35c2 2c3e cdaf ecbb f5f9 12be a46b 45bd
00000040: 85ed 3b3e 56dc 1fbe 9d1a 083e 7b59 8d3d
00000050: e7cf 153d f9ba 8cbd aae3 443c ae2e bbbb
00000060: 410a 28bd ccf8 313e ec8d 0d3e d643 72bd
00000070: 71a4 5abd 65de 243e 14cb 263e 61cb f03d
00000080: 43b8 10be a048 0bbe f666 1e3d 87c9 c5bc
00000090: 9041 163e 4ee0 f0bc 34bc bbbd 4843 3e3c
000000a0: 0ac8 0e3e 9cac 553d 74ee 0cbe f31c 2cbd
000000b0: 028e 5cbd f9e0 19bd da2d b93c fc7c b03d
000000c0: e38e 003e 825e 00be 9703 ea3d 5f89 233e
000000d0: fc81 b33b 486c d83d 2867 073e 9e96 1cbe
000000e0: 26df b7bd 06fe 08be 529d 023e 7026 243e
000000f0: a373 0b3e 137d 2d3d ec91 67bc cb78 fc3d
00000100: 1616 763c 5402 92bd b87d 59bd f014 ddbd
00000110: 1bb8 0dbe e3da fe3d 07f7 f1bd ab4f 18be
00000120: 428d 04bc c10e 2ebe 682b 083e 60fa f53d
00000130: 3daa f6bd 137c 70bc cd7b bdbd c412 c9bd
00000140: e7ca 8e3d f491 78b9 bdac 00be 7c6e 5fbd
00000150: e02a b63d 4786 753d 508e 2bbd dd43 acbc
00000160: 085c 25bd be4c dfbd d42d 70bd 41c0 05bd
00000170: 79ad 8d3d eb38 0d3e f8d5 a8bd b522 bd3d
00000180: c62a ba3d c3c5 0dbe b0ef f4bd bd6c 2f3e
00000190: 3316 d4bc f988 2fbe eea2 3bbe eedb 133e
000001a0: f197 14be 979d 183e 2d53 643c 9236 eb3d
000001b0: 80a7 243e d1f9 f93d 5504 d0bd d3c7 46bd
000001c0: 64ba 11be 701c e13c 67fa 463d f102 4ebc
000001d0: 1ba2 35bd 5db2 dfbc 64cd b63d 559c 293e
000001e0: 9569 c5bc 2e21 213e aea6 ce3b 4350 1e3e
000001f0: e12a 113e 2dbd b63d a2a0 a93d 65a9 a6bd
00000200: 8fc5 dd3c 794c bebd c0e2 95bd 83f5 d43d
00000210: e78b 29be a8d7 e1bc 8e46 8fbd 1171 a33d
00000220: bbc2 a63c 3f38 513c 26a9 bebd 56ef 1b3e
00000230: 197b efbd f4c5 d3bd f385 423d 32df c9bd
00000240: 07e8 e2bc 8993 21bc 3bc9 02be 04e0 fbbd
00000250: f71d 56bd efd4 163e f729 c1bc d98f 83bb
00000260: 7f76 a4bd e2b1 233e 2a54 923d 74a2 68bd
00000270: 4eb7 01be 778a a5bd 29c7 9ebd 0782 25be
00000280: 02c0 e63c e081 323e 0e73 713d 5deb 90bd
00000290: d2bd dc3d e5b3 f8b9 6114 2c3e 3783 fabd
000002a0: 4326 ccbb a607 f83d 3fed d1bc edd4 703d
000002b0: 92fc cd3d b04f 823d 3190 b13d dda3 103e
000002c0: a5a7 233d e5c4 043e be0a 3bbd 72bc 35bb
000002d0: b1f6 f4bc 145d ee3d 9064 f23c ce68 1abe
000002e0: 1b65 8dbc 4072 383e 02bd c9bd b6db 0c3d
000002f0: d1f2 6ebd fedc 583c 1f1e 7b3d b76b 58bd
00000300: c256 1d3e 93a3 16be bd38 23be 50d8 f33d
00000310: c763 023e 35a4 883d b28c 283e fcea 1ebe
00000320: 5622 b13d fef7 83bd 3adb d83a 81de e63d
00000330: 0f94 ec3c 49a0 2abe 23a6 d03a e348 223d
00000340: d02a 0f3e 37a7 07be 55ef 90bc 54e0 223e
00000350: 8e7b a43d 44c7 93bd 3e66 023e 14e9 a2bd
00000360: 01a4 ffbd 6500 2b3d d9d5 ef3c b9be 28bd
00000370: 8b23 09bd 5c5b 82bd 1262 8c3d 6316 83bd
00000380: 40ed f13d 913b 223e 0fc6 3dbd cc0f 173e
00000390: 8f89 733d 32a0 03be 7ecf 8b3d fc10 a83d
000003a0: 37cc 363d e8bd b2bd 5d23 28be 31e3 aabd
000003b0: a189 163e 1a78 a1bd 54c2 04be 9bb5 223e
000003c0: 61fb bdbc bef9 033e a1eb 40bd e559 1dbe
000003d0: fe3a 0f3e eec0 703d 84bf eebd b27c e3bc
000003e0: 0261 9bbd 9673 033d a89d 923d 24b1 7f3c
000003f0: 523b 2abd 5875 bebd 7081 6dbd 1c2a 803b

fc2.bias f4 [16]
-0.14158617 0.08299659 0.0094948 -0.07822858 -0.14923367 -0.032468118 -0.016871782 -0.1172162
0.069899015 -0.07201192 -0.013265784 -0.083032995 -0.15484491 -0.034317527 0.028250694 -0.13470657
00000000: f7fb 10be 1efa a93d 1490 1b3c 4e36 a0bd
00000010: b6d0 18be 4afd 04bd b136 8abc 0c0f f0bd
00000020: 3727 8f3d fc7a 93bd bb58 59bc 340d aabd
00000030: aa8f 1ebe 8990 0cbd 006e e73c 85f0 09be

fc3.weight f4 [1, 16]
-0.1060685 0.20188722 -0.020594865 0.18199384 -0.008906245 -0.18951294 0.0248403 -0.052318543
0.22363012 0.22773007 0.085168004 0.0015793741 -0.14604542 -0.25365138 -0.12213588 0.12835306
00000000: 713a d9bd 86bb 4e3e 90b6 a8bc 985c 3a3e
00000010: 80eb 11bc ae0f 42be e37d cb3c f84b 56bd
00000020: 4bff 643e 1232 693e 906c ae3d 0003 cf3a
00000030: ee8c 15be 98de 81be 6022 fabd fc6e 033e
