Models/dependency_nn_best.pth (torch, 5302 bytes, 5 tensors)

fc1.weight f4 [32, 2]
0.14742167 0.22984472 0.58419824 0.12133521 -0.46109882 0.14252733 -0.28940395 -0.22819601
-0.20527232 -0.5643687 -0.04687584 0.1949623 0.062209845 -0.0509724 -0.455252 0.022362227
0.22810324 0.15331484 0.096016675 0.057217885 -0.18567201 0.6039427 0.59427387 0.6569774
0.16776106 0.18623883 -0.060482327 0.43781513 0.12797856 0.013556702 0.22142884 -0.52069414
-0.47253653 -0.30409583 0.46613896 -0.07800251 0.17000552 -0.18363969 0.15870059 -0.34341985
0.7002604 -0.37034348 0.44057176 0.5120104 0.266302 -0.20736755 -0.28666508 0.13534954
-0.33999014 0.6265911 -0.49339613 -0.51228446 0.14339301 -0.4633949 0.5331562 -0.4785536
0.59143347 -0.34308955 0.31517908 0.6921559 0.15617187 -0.41820684 0.4209435 0.4430652
00000000: b5f5 163e 6a5c 6b3e 048e 153f 987e f83d
00000010: 2515 ecbe aff2 113e c12c 94be 37ac 69be
00000020: e832 52be 787a 10bf e100 40bd 32a4 473e
00000030: c0cf 7e3d 6fc8 50bd ca16 e9be fd30 b73c
00000040: e593 693e 91fe 1c3e 64a4 c43d 4d5d 6a3d
00000050: ce20 3ebe fd9b 1a3f 5522 183f ac2f 283f
00000060: 8ec9 2b3e 64b5 3e3e 51bc 77bd 4e29 e03e
00000070: d00c 033e ee1c 5e3c 3ebe 623e 364c 05bf
00000080: 4ff0 f1be 73b2 9bbe c4a9 ee3e c8bf 9fbd
00000090: ed15 2e3e 0b0c 3cbe 6882 223e bad4 afbe
000000a0: 4444 333f a99d bdbe 9f92 e13e 1d13 033f
000000b0: bc58 883e 2958 54be c4c5 92be 1299 0a3e
000000c0: 3013 aebe 4668 203f 6b9e fcbe 1325 03bf
000000d0: 9ed5 123e 1942 edbe ed7c 083f fa04 f5be
000000e0: 2f68 173f 6fa9 afbe 275f a13e 2131 313f
000000f0: 85eb 1f3e 351f d6be e885 d73e 71d9 e23e

fc1.bias f4 [32]
-0.39903867 -0.13757448 -0.32886443 -0.19211014 0.05493106 -0.002302292 -0.47576347 0.32910067
0.24365357 -0.122966886 0.515738 0.075125605 -0.3252329 -0.089186184 -0.680918 0.19936094
-0.4146051 0.11572866 -0.0150452815 -0.16000596 0.5880101 0.080405764 -0.51787406 -0.3404968
0.0896916 -0.531976 -0.35922754 0.5849516 0.023362888 0.47654757 0.67485607 -0.3961485
00000000: cc4e ccbe 53e0 0cbe eb60 a8be 85b8 44be
00000010: 64ff 603d 0de2 16bb 4597 f3be e27f a83e
00000020: 5280 793e 10d6 fbbd 6807 043f 74db 993d
00000030: ed84 a6be 3fa7 b6bd a450 2ebf 4625 4c3e
00000040: 1f47 d4be 2603 ed3d 7c80 76bc 9ad8 23be
00000050: d487 163f c7ab a43d 6593 04bf 9955 aebe
00000060: 3bb0 b73d 942f 08bf acec b7be 63bf 153f
00000070: 8763 bf3c 0bfe f33e 5ec3 2c3f fad3 cabe

fc2.weight f4 [16, 32]
0.16882356 0.08275197 -0.08672646 0.09240644 -0.09916998 -0.002560674 0.03547043 0.07499372
-0.10916878 0.055018242 -0.012218456 0.17560102 -0.121461295 0.05668161 0.01657469 -0.124385
-0.06094276 0.03801848 -0.028801933 -0.06502818 -0.07312468 0.055245623 -0.0353395 -0.10678977
-0.16583662 -0.04779642 -0.013412012 -0.031860277 -0.16606379 -0.11395496 -0.09162242 -0.08209525
0.15574874 -0.16849777 -0.12001256 -0.16105905 -0.15246367 -0.17695966 0.15586947 0.15006542
0.17017308 -0.0810699 0.06251648 -0.08585232 0.05257341 0.02863497 0.035232764 0.04288396
0.15350027 0.055880133 -0.085511595 -0.1332521 -0.13688922 -0.080972694 0.0021909617 -0.0051757805
0.15303959 -0.054850057 0.0622432 0.17085023 0.044658057 0.110690586 0.09060211 0.17188758
-0.017160678 0.09789824 0.09466768 -0.032835472 -0.095899545 -0.022902114 -0.046253596 -0.12459502
0.083546944 -0.04933533 0.17492095 0.06677394 -0.10712068 0.10969368 0.011410395 -0.10134506
-0.013003904 0.002913111 0.04047564 0.17101449 -0.033110984 -0.08277996 0.026766978 0.049677625
0.12795721 -0.12718993 0.16527109 0.11281061 -0.08889761 -0.14780249 0.098758265 0.034414925
-0.13947622 0.03342679 -0.10223433 0.04075615 -0.0013841189 0.14367786 0.13947053 0.1148929
0.011487668 0.06521089 0.00035096798 0.06375114 -0.1530737 0.06226693 0.038084757 -0.15564616
-0.07985485 -0.0492701 -0.114385955 -0.12098845 -0.043922897 -0.0028251638 0.15525894 -0.06928545
-0.02106701 -0.053819545 -0.09669633 0.103993006 0.12686497 0.054280754 0.066001885 0.08165037
-0.13239646 0.12866181 -0.08508351 -0.16702345 0.16921975 -0.17787766 -0.0636755 -0.07769453
0.16825333 0.13685061 -0.08654307 0.1016484 0.051326074 -0.030016605 0.018488748 0.16672935
0.034791064 -0.06622537 -0.18194087 -0.06638607 0.14716122 -0.15498675 0.07457171 0.12066592
-0.12981242 -0.116543345 0.13810675 0.11051276 0.068325594 0.14208306 -0.09112726 0.15181999
0.15476027 -0.1611816 0.14291318 0.04978759 0.06429206 -0.006770784 -0.1547326 0.16569732
0.115959644 -0.09975122 -0.006539947 0.11273871 0.036438543 -0.06492918 -0.076523565 0.10915231
0.05375 0.17342614 0.15969479 0.10802003 0.09399901 0.09202051 0.16421917 0.07082805
0.11713531 -0.1728163 -0.041480232 -0.04808381 -0.04217704 0.064325385 0.00042552393 0.008532671
0.03388518 -0.033608172 -0.0052486733 0.11826852 0.13562705 0.03646277 0.15515403 0.03860696
-0.08331205 0.007024615 -0.16150276 0.12586403 -0.16493215 0.004566295 -0.07024213 0.04585247
-0.15656753 -0.13678244 -0.0013617242 0.08921487 0.15899526 -0.14544563 -0.10792733 0.015116788
0.13630207 -0.09395042 0.15167317 0.07464295 -0.0030799233 -0.04203108 0.053899273 -0.08916718
-0.060260173 0.105662756 0.098254226 -0.019154752 -0.005838886 -0.044384032 -0.10767759 0.037649076
0.0073595536 0.04724569 0.14999866 -0.06297054 -0.1710175 0.12376871 0.16387467 0.050921027
-0.1457924 0.11988466 0.074979894 -0.10778266 0.15330932 0.029683022 0.17626534 0.13584329
-0.0896632 0.0400559 -0.17410916 -0.1376704 0.130405 -0.1400184 -0.09710294 -0.061508603
00000000: 15e0 2c3e dd79 a93d a49d b1bd 963f bd3d
00000010: a119 cbbd fbd0 27bb 7149 113d 4f96 993d
00000020: e293 dfbd cf5a 613d eb2f 48bc c1d0 333e
00000030: b3c0 f8bd fa2a 683d a5c7 873c 90bd febd
00000040: 1e9f 79bd 44b9 1b3d 08f2 ebbc 7f2d 85bd
00000050: 64c2 95bd 3c49 623d 27c0 10bd 98b4 dabd
00000060: 13d1 29be 2ec6 43bd 0ebe 5bbc ec7f 02bd
00000070: a00c 2abe 3861 e9bd 89a4 bbbd 8e21 a8bd
00000080: 997c 1f3e ae8a 2cbe 25c9 f5bd aaec 24be
00000090: 701f 1cbe ea34 35be 3f9c 1f3e c0aa 193e
000000a0: da41 2e3e fa07 a6bd a408 803d 57d3 afbd
000000b0: 3757 573d e293 ea3c 3b50 103d 17a7 2f3d
000000c0: 2d2f 1d3e 91e2 643d b420 afbd 3d73 08be
000000d0: b02c 0cbe 03d5 a5bd 3d96 0f3b 9899 a9bb
000000e0: 69b6 1c3e 74aa 60bd baf2 7e3d 5df3 2e3e
000000f0: 5eeb 363d bfb1 e23d 998d b93d 4c03 303e
00000100: 8d94 8cbc df7e c83d 21e1 c13d 7d7e 06bd
00000110: fb66 c4bd 379d bbbc 6974 3dbd ad2b ffbd
00000120: a91a ab3d d813 4abd 7a1e 333e c7c0 883d
00000130: 1662 dbbd 15a7 e03d aaf2 3a3c 008e cfbd
00000140: 540e 55bc e4e9 3e3b c9c9 253d 6c1e 2f3e
00000150: 629f 07bd 8a88 a9bd 6c46 db3c c47a 4b3d
00000160: 3707 033e 143e 02be d33c 293e 4009 e73d
00000170: f30f b6bd 8959 17be c641 ca3d aaf6 0c3d
00000180: dbd2 0ebe 88ea 083d 3b60 d1bd ecef 263d
00000190: 536b b5ba 4a20 133e 5dd1 0e3e f84c eb3d
000001a0: c636 3c3c 498d 853d 2002 b839 f58f 823d
000001b0: 5abf 1cbe 9c0b 7f3d c3fe 1b3d b561 1fbe
000001c0: f18a a3bd 72cf 49bd 2f43 eabd cbc8 f7bd
000001d0: 7fe8 33bd 6226 39bb 33fc 1e3e 88e5 8dbd
000001e0: b994 acbc e271 5cbd ba08 c6bd 49fa d43d
000001f0: e4e8 013e 7f55 5e3d ff2b 873d 4f38 a73d
00000200: f092 07be ecbf 033e 4340 aebd 3208 2bbe
00000210: f147 2d3e 9025 36be 4d68 82bd 4f1e 9fbd
00000220: 9a4a 2c3e 9122 0c3e 7e3d b1bd 092d d03d
00000230: 4a3b 523d 62e5 f5bc b775 973c 19bb 2a3e
00000240: 1381 0e3d 2ba1 87bd b54e 3abe 6bf5 87bd
00000250: 6eb1 163e d9b4 1ebe 0db9 983d b21f f73d
00000260: 8ced 04be 47ae eebd db6b 0d3e 8454 e23d
00000270: 4aee 8b3d 397e 113e eea0 babd b376 1b3e
00000280: 7a79 1e3e ca0c 25be d557 123e 12ee 4b3d
00000290: 8eab 833d 74dd ddbb 3972 1ebe 8fac 293e
000002a0: 407c ed3d 5e4a ccbd 0d4d d6bb 8ee3 e63d
000002b0: 9540 153d 97f9 84bd 63b8 9cbd 3f8b df3d
000002c0: f628 5c3d 9f96 313e 0887 233e 9b39 dd3d
000002d0: 8e82 c03d 4075 bc3d 1229 283e 4c0e 913d
000002e0: a3e4 ef3d c2f6 30be 2de7 29bd 87f3 44bd
000002f0: d5c1 2cbd 07bd 833d db18 df39 9ecc 0b3c
00000300: 30cb 0a3d b9a8 09bd 10fd abbb c436 f23d
00000310: d1e1 0a3e fc59 153d b3e0 1e3e 5522 1e3d
00000320: 829f aabd be2e e63b fb60 25be 80e2 003e
00000330: f9e3 28be dca0 953b 1bdb 8fbd cdcf 3b3d
00000340: 3d53 20be b210 0cbe e27b b2ba 49b6 b63d
00000350: a7cf 223e b3ef 14be 0109 ddbd 68ac 773c
00000360: c592 0b3e 1469 c0bd 3650 1b3e 67de 983d
00000370: 8ad8 49bb c828 2cbd 7cc5 5c3d 489d b6bd
00000380: 5fd3 76bd b765 d83d 8339 c93d 6dea 9cbc
00000390: 2054 bfbb 08cc 35bd 1186 dcbd eb35 1a3d
000003a0: 6928 f13b b284 413d 4099 193e b3f6 80bd
000003b0: 361f 2fbe 737a fd3d c3ce 273e 9192 503d
000003c0: 9a4a 15be 1786 f53d 0f8f 993d 28bd dcbd
000003d0: 1efd 1c3e cf29 f33c e77e 343e 811a 0b3e
000003e0: 57a1 b7bd a811 243d ac49 32be 78f9 0cbe
000003f0: e388 053e fc60 0fbe e8dd c6bd 72f0 7bbd

fc2.bias f4 [16]
0.0068832333 -0.06935972 0.11235615 -0.084983796 -0.02368886 0.10894418 0.11517267 0.092226855
-0.035934296 -0.058701877 -0.009794287 0.1575264 -0.07913069 -0.018984944 -0.15368123 -0.12974139
00000000: bf8c e13b 780c 8ebd fb1a e63d fc0b aebd
00000010: 240f c2bc 201e df3d a6df eb3d 6fe1 bc3d
00000020: d72f 13bd 6171 70bd 3878 20bc 9a4e 213e
00000030: 450f a2bd 5086 9bbc 9d5e 1dbe edda 04be

fc3.weight f4 [1, 16]
-0.24370825 -0.086837724 -0.014292332 -0.063958324 -0.025255185 -0.16960448 -0.2069865 -0.12371029
0.011059284 -0.1746696 0.19671 0.028666096 0.017982304 0.21320102 0.082116336 -0.13015512
00000000: a88e 79be fad7 b1bd 632a 6abc 95fc 82bd
00000010: f6e3 cebc ccac 2dbe 45f4 53be d25b fdbd
00000020: 0032 353c 96dc 32be 596e 493e 29d5 ea3c
00000030: a04f 933c 5e51 5a3e 9c2c a83d 6247 05be
