Models/dependency_nn_checkpoint_epoch50.pth (torch, 5570 bytes, 5 tensors)

fc1.weight f4 [32, 2]
00000000: 05e3 4f3e 094e eebd 32a3 2dbf 82dd 49be
00000010: d4f0 d8be d1de fa3e e101 353f 566e 513d
00000020: c9ec 083f 6ea3 7abe b9e1 283f fec5 82be
00000030: 470f 26be eb7f b3be fc5e 263e 6ff3 723d
00000040: 6dc9 dbbe 9b22 e9be f135 ce3d 34ef b9be
00000050: 059b b13e 25d6 30bf 93a6 cdbc d963 f6be
00000060: 1785 51bc 004b d0be 46f7 e23e 88a7 13bf
00000070: c377 e43e 537f 973e d64a 193e 1e19 9fbe
00000080: d954 b9be d6c1 543e 8a2a bdbe 2c00 123f
00000090: 3f26 1bbf b524 d7be dae9 c4be 14af d6be
000000a0: 693e fbbe 95f4 ca3e af03 0b3f 482a 83be
000000b0: 49ab 54be 97b7 8abe c971 af3e 6085 af3e
000000c0: 6542 5cbe d06f df3e 1f50 c63e 83eb 27bd
000000d0: e433 763e 1b00 dc3d 67fa 063f 415e 123f
000000e0: beb5 223f 8ca7 e13e 4c84 14bf 3f73 01bf
000000f0: 7858 c53d f7c7 0a3f b8c3 1ebf 01af 893e
0.20301445 -0.11635978 -0.6782714 -0.19713405 -0.42371237 0.4899812 0.7070599 0.051130615
0.53486305 -0.24476406 0.65969425 -0.2554168 -0.16216765 -0.3505853 0.16247171 0.059314188
-0.42927113 -0.45534214 0.10068882 -0.3631531 0.34688583 -0.6907676 -0.025103843 -0.48123053
-0.012788079 -0.4068222 0.4432928 -0.5767751 0.4462262 0.29589328 0.14969954 -0.3107385
-0.36197546 0.20777068 -0.36946517 0.5703151 -0.60605234 -0.42020193 -0.38459665 -0.4193045
-0.49071053 0.39639726 0.54302496 -0.25618196 -0.20768465 -0.27093193 0.342665 0.34281445
-0.21509703 0.43639994 0.38733003 -0.040996086 0.24043232 0.107422076 0.52725834 0.5717507
0.63558567 0.4407314 -0.5801437 -0.50566477 0.09636015 0.5421137 -0.62017393 0.2689133

fc1.bias f4 [32]
00000000: 9b5f 13bf 0235 42be 94c2 05bf c71c 83be
00000010: da11 9c3e cad0 8abe bb9b 263f c5f1 a1be
00000020: bf8d 07bf 2bec 8cbe 0f63 943e 330b 9abe
00000030: 0ef4 063f e3b1 c63c 89cf 46be e366 67be
00000040: 22a5 cb3e fc08 e83e 332b 123f 3164 06be
00000050: 75e9 17be 4b43 ed3e 1c07 4e3e bcbc 07bf
00000060: 374b e4bd 12d7 0b3e 0509 f63e 6dc8 093f
00000070: 950d 193f 2efc 253f b05b 993d f9b8 883e
-0.5756776 -0.18965533 -0.5225003 -0.25607893 0.3048237 -0.27112418 0.65081376 -0.31629768
-0.5295066 -0.27523932 0.28981826 -0.3008667 0.5271615 0.024254745 -0.19415106 -0.22597842
0.39774424 0.45319355 0.57097167 -0.13124157 -0.1483515 0.46340403 0.201199 -0.5302236
-0.111471586 0.13656262 0.48053756 0.5382145 0.5978635 0.6483792 0.07488191 0.26703623

fc2.weight f4 [16, 32]
00000000: e058 f03d f282 d7bc 18e0 023e 0818 e3bd
00000010: b085 533d 98e6 af3d 1244 77bb 67e6 d1bd
00000020: d487 5b3d 592c 7d3b e3ae 17be f7de 49bd
00000030: f069 373e ec31 863b f5f9 12be a46b 45bd
00000040: f880 463e f60d 15be 34e5 123e 7b59 8d3d
00000050: e7cf 153d 36fc 6ebd b4c0 b93c ae2e bbbb
00000060: 410a 28bd 945a 3c3e fd5a 183e bf02 47bd
00000070: f462 2fbd f7a9 2f3e 93b3 303e e2f1 023e
00000080: 43b8 10be a048 0bbe f666 1e3d 87c9 c5bc
00000090: b6ea 0a3e 4ee0 f0bc 3430 d2bd 4843 3e3c
000000a0: 0ac8 0e3e 9cac 553d 411a 18be f31c 2cbd
000000b0: 40b4 84bd dac2 48bd da2d b93c fc7c b03d
000000c0: 99d4 ea3d aeab 0bbe 966d d33d 5f89 233e
000000d0: fc81 b33b f90c c23d f512 f83d 9e96 1cbe
000000e0: 26df b7bd d708 14be ffa1 ee3d 32d7 183e
000000f0: fc23 003e 724c 003d 7483 c9bc 742f e63d
00000100: 1616 763c 5402 92bd b87d 59bd f014 ddbd
00000110: 1bb8 0dbe e3da fe3d 07f7 f1bd ab4f 18be
00000120: 428d 04bc c10e 2ebe 682b 083e 60fa f53d
00000130: 3daa f6bd 137c 70bc cd7b bdbd c412 c9bd
00000140: e7ca 8e3d f491 78b9 bdac 00be 7c6e 5fbd
00000150: e02a b63d 4786 753d 508e 2bbd dd43 acbc
00000160: 085c 25bd be4c dfbd d42d 70bd 41c0 05bd
00000170: 79ad 8d3d eb38 0d3e f8d5 a8bd b522 bd3d
00000180: c62a ba3d c3c5 0dbe b0ef f4bd bd6c 2f3e
00000190: 2253 17bd f988 2fbe 17d8 46be eedb 133e
000001a0: f197 14be 979d 183e 6c93 473b 9236 eb3d
000001b0: b775 193e af91 e23d 5504 d0bd d3c7 46bd
000001c0: 32da 1cbe afd9 863c 91e1 193d f102 4ebc
000001d0: 1ba2 35bd 7d84 1cbd 961b a03d 559c 293e
000001e0: 9569 c5bc 421b 163e eb49 9abb e005 133e
000001f0: 19e0 053e 972e a03d a33b 943d f9e8 bcbd
00000200: 8fc5 dd3c 794c bebd c0e2 95bd 83f5 d43d
00000210: e78b 29be a8d7 e1bc 8e46 8fbd 1171 a33d
00000220: bbc2 a63c 3f38 513c 26a9 bebd 56ef 1b3e
00000230: 197b efbd f4c5 d3bd f385 423d 32df c9bd
00000240: 07e8 e2bc 8993 21bc 3bc9 02be 04e0 fbbd
00000250: f71d 56bd efd4 163e f729 c1bc d98f 83bb
00000260: 7f76 a4bd e2b1 233e 2a54 923d 74a2 68bd
00000270: 4eb7 01be 778a a5bd 29c7 9ebd 0782 25be
00000280: 02c0 e63c e081 323e 0e73 713d 5deb 90bd
00000290: 17d4 f23d e5b3 f8b9 9ef5 363e 3783 fabd
000002a0: 4326 ccbb a607 f83d 1e09 77bc edd4 703d
000002b0: c4b5 e33d 4a9e 993d 3190 b13d dda3 103e
000002c0: 9dcb 4e3d d6c2 0f3e d41f 0fbd 72bc 35bb
000002d0: b1f6 f4bc 8d02 023e 9989 253d ce68 1abe
000002e0: 1b65 8dbc 5c11 433e 62c3 b3bd 6fdb 383d
000002f0: 41f2 42bd 8c4c c43c a6f2 913d 115b 2dbd
00000300: c256 1d3e 93a3 16be bd38 23be 50d8 f33d
00000310: 2576 ea3d 35a4 883d b339 1b3e fcea 1ebe
00000320: 5622 b13d fef7 83bd 773f 3bbc 81de e63d
00000330: 6fdf 813c 3905 37be 23a6 d03a e348 223d
00000340: ebdb 013e 92d9 14be d09f fabc 54e0 223e
00000350: 8e7b a43d c879 aebd 6595 ea3d 14e9 a2bd
00000360: 01a4 ffbd 758a e93c 193b 863c ea90 5dbd
00000370: 08fb 3dbd 4eca 9cbd a460 613d 35e9 9dbd
00000380: 40ed f13d 913b 223e 0fc6 3dbd cc0f 173e
00000390: 8f89 733d 32a0 03be 7ecf 8b3d fc10 a83d
000003a0: 37cc 363d e8bd b2bd 5d23 28be 31e3 aabd
000003b0: a189 163e 1a78 a1bd 54c2 04be 9bb5 223e
000003c0: 61fb bdbc bef9 033e a1eb 40bd e559 1dbe
000003d0: fe3a 0f3e eec0 703d 84bf eebd b27c e3bc
000003e0: 0261 9bbd 9673 033d a89d 923d 24b1 7f3c
000003f0: 523b 2abd 5875 bebd 7081 6dbd 1c2a 803b
0.117357016 -0.026307557 0.12780797 -0.11088568 0.051641166 0.08588904 -0.0037729782 -0.10249024
0.053596333 0.003863117 -0.14812808 -0.0492849 0.17911506 0.0040953066 -0.14353164 -0.048198357
0.19385135 -0.14556107 0.14345247 0.06901833 0.036575224 -0.058345996 0.022674896 -0.0057123518
-0.041025404 0.18393928 0.1487846 -0.048586603 -0.04281898 0.1715468 0.17256002 0.12787583
-0.1413279 -0.13601923 0.03867241 -0.024143947 0.13566098 -0.029403832 -0.102631 0.011612721
0.13943496 0.052166566 -0.14853765 -0.042019796 -0.064796925 -0.04901395 0.022604872 0.08617589
0.11466331 -0.1363971 0.10323636 0.15970372 0.005478142 0.094751306 0.12112991 -0.15291831
-0.08978109 -0.14456497 0.11651992 0.1492584 0.12513727 0.031322904 -0.024598815 0.1123952
0.015019914 -0.0712935 -0.05309841 -0.10795009 -0.13839762 0.12444093 -0.11814695 -0.14874141
-0.008090319 -0.16997816 0.13297808 0.12010646 -0.12044189 -0.014678019 -0.09252129 -0.098180324
0.06972294 -0.00023705495 -0.12565894 -0.054548725 0.088948965 0.05994251 -0.041883767 -0.021028453
-0.04037097 -0.10903309 -0.058637455 -0.03265405 0.06917853 0.13791244 -0.08243936 0.092351355
0.0909019 -0.13844971 -0.11959779 0.17131324 -0.036944516 -0.17142095 -0.19418369 0.14439365
-0.14511086 0.14903866 0.003045286 0.11485018 0.14986311 0.11062943 -0.10157076 -0.04853041
-0.1531761 0.016461222 0.037568633 -0.0125739435 -0.04434405 -0.03821229 0.078177616 0.16563542
-0.024098197 0.14658836 -0.0047085187 0.1435771 0.13073768 0.07821386 0.07237937 -0.092241235
0.027071742 -0.0929193 -0.0731864 0.1039839 -0.16557275 -0.027568653 -0.06995879 0.0798055
0.020356527 0.012769758 -0.09309606 0.15228018 -0.11693401 -0.10340491 0.047491025 -0.09857024
-0.02769853 -0.009861835 -0.12772076 -0.12298587 -0.05227467 0.14729665 -0.02357958 -0.0040149507
-0.08030414 0.15985826 0.07144959 -0.056795552 -0.12667581 -0.08083051 -0.077528305 -0.16162883
0.028167728 0.17432356 0.058947615 -0.07076142 0.11856859 -0.00047436278 0.17867133 -0.122320585
-0.006230147 0.12110834 -0.015077857 0.05879681 0.111186534 0.07500894 0.086700805 0.14125009
0.05048715 0.14039168 -0.034942463 -0.002773073 -0.029902788 0.12696286 0.040414426 -0.15079042
-0.017260125 0.19049591 -0.08777501 0.045131143 -0.047594313 0.023962282 0.0712636 -0.042323176
0.15365127 -0.14710836 -0.15939613 0.11906493 0.114483155 0.06671945 0.1515873 -0.15519327
0.08649127 -0.06443785 -0.011428705 0.11272908 0.015853612 -0.17873086 0.0015918653 0.03962029
0.12681548 -0.14536121 -0.030593783 0.15905887 0.08031379 -0.08519322 0.11454276 -0.079546124
-0.12482453 0.028508404 0.016385602 -0.05409328 -0.04638198 -0.07655774 0.055023804 -0.07710496
0.1181283 0.15843035 -0.04633146 0.1475212 0.059457358 -0.12854078 0.06826685 0.082063645
0.04462835 -0.08727628 -0.1641974 -0.083441146 0.14700939 -0.07884236 -0.12964755 0.1588959
-0.023191156 0.12888238 -0.047099713 -0.15366323 0.13987347 0.058777742 -0.116576225 -0.02776942
-0.07586862 0.032092653 0.07158977 0.015606198 -0.04156048 -0.09299725 -0.05798477 0.00391127

fc2.bias f4 [16]
00000000: 793c 06be f86e 933d 1490 1b3c b7b7 b6bd
00000010: b6d0 18be 7f6e b2bc 575b f4bc 0c0f f0bd
00000020: ca4e 713d fc7a 93bd bb58 59bc 340d aabd
00000030: aa8f 1ebe 8064 c1bc 006e e73c 85f0 09be
-0.13109006 0.071989 0.0094948 -0.089217596 -0.14923367 -0.021781204 -0.02982871 -0.1172162
0.05891303 -0.07201192 -0.013265784 -0.083032995 -0.15484491 -0.023607492 0.028250694 -0.13470657

fc3.weight f4 [1, 16]
00000000: d672 eabd 0a0c 433e 90b6 a8bc de9d 2d3e
00000010: 80eb 11bc dbe2 4bbe bbf5 763c f84b 56bd
00000020: 04ec 583e 1232 693e 906c ae3d 0003 cf3a
00000030: ee8c 15be 38c7 85be 6022 fabd fc6e 033e
-0.114476845 0.19047561 -0.020594865 0.16954753 -0.008906245 -0.19910757 0.015073235 -0.052318543
0.21183783 0.22773007 0.085168004 0.0015793741 -0.14604542 -0.26128554 -0.12213588 0.12835306
