Models/dependency_nn.pth (torch, 5252 bytes, 5 tensors)

fc1.weight f4 [32, 2]
0.32434618 -0.21500364 0.6386977 -0.35385936 0.5925273 0.62741846 -0.29338413 -0.47063875
-0.06022498 -0.100913964 -0.46696195 -0.30956742 -0.63908 0.13302355 -0.49243703 -0.3288056
0.085937336 -0.65030646 -0.0034252743 -0.2870647 -0.4951367 -0.12421485 0.67667836 -0.38679123
0.10454513 -0.21925819 -0.30248562 0.37620988 0.35304087 0.33013633 0.16451971 0.5748851
0.041956283 0.2723864 0.4221354 0.5382211 0.44582427 -0.043155763 0.52378786 -0.4616342
-0.6618727 0.08077115 0.28859165 -0.29089233 0.42626017 -0.3650973 0.56110084 0.549315
0.20920356 -0.34656686 0.11689268 -0.14446531 0.21350317 0.6806498 0.04537319 0.15641926
0.46801883 -0.6193225 0.33938742 -0.64667904 0.2594372 0.5387563 -0.37616292 -0.1502316
00000000: b410 a63e ea29 5cbe b181 233f 0e2d b5be
00000010: deaf 173f 7f9e 203f 7236 96be 90f7 f0be
00000020: 78ae 76bd fbab cebd a315 efbe 9f7f 9ebe
00000030: bf9a 23bf 5337 083e b520 fcbe 3559 a8be
00000040: eaff af3d 7c7a 26bf 917a 60bb 25fa 92be
00000050: 8f82 fdbe 5b64 febd cb3a 2d3f 8009 c6be
00000060: c21b d63d 3885 60be 65df 9abe 959e c03e
00000070: c6c1 b43e a107 a93e db77 283e ab2b 133f
00000080: 5ada 2b3d 3b76 8b3e 2222 d83e dcc8 093f
00000090: 1443 e43e 19c4 30bd f616 063f 515b ecbe
000000a0: 7d70 29bf 586b a53d 49c2 933e d7ef 94be
000000b0: c63e da3e 09ee babe 4ea4 0f3f e89f 0c3f
000000c0: 7539 563e 3671 b1be 6e65 ef3d b7ee 13be
000000d0: 93a0 5a3e 113f 2e3f 3dd9 393d 5f2c 203e
000000e0: 2aa0 ef3e eb8b 1ebf 30c4 ad3e c28c 25bf
000000f0: f4d4 843e efeb 093f 6d98 c0be 50d6 19be

fc1.bias f4 [32]
0.60186183 0.6342077 0.39227253 -0.61961204 -0.08142265 -0.62941986 -0.16807792 -0.45904517
0.14141983 -0.6407721 -0.17056999 -0.13030684 0.18038236 0.45452318 -0.33714065 0.6653946
0.5411214 -0.10673057 0.3619635 0.055221204 -0.38008568 0.6016303 0.254041 -0.28375214
-0.66625494 -0.27772236 0.2848593 -0.051893305 -0.5145685 0.1264174 0.17894594 0.33295643
00000000: 9e13 1a3f 705b 223f f2d7 c83e e59e 1ebf
00000010: ebc0 a6bd a921 21bf 9e1c 2cbe f807 ebbe
00000020: 5cd0 103e a409 24bf e6a9 2ebe 286f 05be
00000030: 27b6 383e 43b7 e83e b39d acbe 4d57 2a3f
00000040: ef86 0a3f 8f95 dabd 4853 b93e a12f 623d
00000050: 979a c2be 7104 1a3f a911 823e f647 91be
00000060: af8f 2abf a031 8ebe 14d9 913e 138e 54bd
00000070: c3ba 03bf 9073 013e 9b3d 373e 4479 aa3e

fc2.weight f4 [16, 32]
-0.012908007 0.10045132 0.15028238 -0.06485799 0.06351969 0.020290503 -0.01858029 0.13119665
0.016096529 -0.017105445 -0.108994596 -0.14325765 -0.10775716 0.13949792 -0.1620529 -0.09770778
0.0021549847 -0.021185871 0.04055698 0.014003901 0.005435679 -0.1679467 -0.114018805 0.1636765
0.15136819 -0.15182932 -0.011701163 0.120137714 -0.008208077 0.00023182001 0.17429674 0.11791017
0.16677554 -0.0044680927 -0.168173 -0.10674176 -0.09401691 -0.030301392 0.17101716 0.15348934
0.17313853 -0.16683461 -0.10720245 0.043816917 -0.17389005 -0.055565204 -0.10552951 0.10812538
0.057836622 0.15565608 -0.0009641302 -0.10474271 0.088469036 0.11024264 -0.0100976685 -0.10871097
-0.11945719 -0.053757694 -0.13168176 -0.00067778456 0.016176445 -0.13865696 0.16146643 -0.09386396
0.11104035 -0.053529054 0.17721201 0.046411812 -0.05201899 0.10508014 -0.016358435 0.06856285
0.16703823 -0.060001813 0.04882666 0.116951264 0.120657824 0.14275834 -0.056893967 0.09186331
0.038296465 0.09481743 0.14381948 -0.099114485 -0.02603628 0.13347635 0.06075885 0.07105162
0.007153079 0.0671205 0.06895767 -0.14723375 -0.09748505 0.026034191 -0.030509397 0.044118695
0.15494761 -0.080405325 -0.05360835 0.16083097 0.09990493 -0.07092122 -0.061233934 -0.16832276
-0.14724699 0.17346187 0.10066195 0.015916862 -0.11184252 -0.07353277 -0.11483002 0.11773789
0.11088074 -0.060628366 -0.034289412 0.12621361 -0.11379915 -0.15487818 0.17840166 -0.12940782
-0.11288673 0.16138913 0.065028906 0.10416644 0.15072842 -0.13825662 0.15279624 0.16748074
0.0061907265 0.019259328 0.14962871 0.12870836 0.008155268 0.04691707 0.15561396 -0.10291839
-0.0016036424 0.13766457 -0.17421556 0.12256472 -0.17837954 0.066063836 0.0046580695 0.12110548
-0.17587906 -0.1732597 -0.08254121 -0.14188127 -0.16164526 0.051534187 0.064681455 0.15671581
-0.051073276 -0.032482617 -0.19073491 -0.12235936 -0.09818572 -0.15259017 0.068903044 0.0627418
-0.001164096 -0.039340038 -0.17112856 -0.09139729 0.022091987 -0.13575852 0.10057532 0.1639987
-0.17087717 -0.11619113 0.13608627 0.03713839 -0.0109696025 0.036412727 0.15783916 -0.08971359
0.16828966 0.08996586 0.1502225 -0.10375633 -0.0072818585 -0.13518634 0.10821203 0.049434036
0.023469262 -0.10081121 0.040566888 -0.11644571 0.036454473 0.08177883 -0.1457485 -0.028184313
-0.12347764 0.11249986 -0.0040596896 0.16668855 -0.13836081 -0.052555937 0.1711573 -0.07423925
0.03278576 -0.076552205 0.07986836 -0.1582222 -0.14699598 0.070053875 -0.16547276 -0.06407019
-0.16719124 0.069617845 -0.053090826 -0.040169593 0.122356474 0.07906953 0.11361267 -0.023981009
0.10088714 0.12593743 0.09766396 -0.102158226 -0.04243764 -0.03551289 -0.16703413 -0.077482216
-0.014515933 -0.008863358 0.021066487 -0.050423834 -0.11556546 0.111042276 -0.16490974 -0.07680852
-0.05171311 -0.1644533 -0.024203144 0.08318243 -0.15795057 -0.018099656 0.031986844 -0.14876406
0.07547927 0.17085756 0.091714844 0.17318693 0.06287212 0.15231326 0.12225104 0.085842736
-0.14472918 -0.11252629 -0.05446825 -0.120492294 0.02192262 0.019549841 -0.12266283 -0.006523421
00000000: 1b7c 53bc 6cb9 cd3d a0e3 193e 44d4 84bd
00000010: 9c16 823d 4538 a63c b135 98bc 6a58 063e
00000020: dedc 833c b820 8cbc 8f38 dfbd 22b2 12be
00000030: c9af dcbd 8bd8 0e3e 32f1 25be 041b c8bd
00000040: a53a 0d3b fe8d adbc 131f 263d 9e70 653c
00000050: c81d b23b 38fa 2bbe b182 e9bd d09a 273e
00000060: 4300 1b3e 2579 1bbe 3cb6 3fbc c30a f63d
00000070: 2c7b 06bc b614 7339 d87a 323e e37a f13d
00000080: 35c7 2a3e 1469 92bb 8b35 2cbe 6d9b dabd
00000090: f08b c0bd a03a f8bc 1f1f 2f3e 4f2c 1d3e
000000a0: 3a4b 313e b1d6 2abe f58c dbbd 5e79 333d
000000b0: 3c10 32be 5798 63bd db1f d8bd d770 dd3d
000000c0: 18e6 6c3d 4f64 1f3e afbd 7cba 5983 d6bd
000000d0: 412f b53d e5c6 e13d b170 25bc dba3 debd
000000e0: f9a5 f4bd 0731 5cbd 95d7 06be 5aad 31ba
000000f0: 7784 843c 17fc 0dbe 7557 253e bf3b c0bd
00000100: 1f69 e33d 4841 5bbd 1177 353e 501a 3e3d
00000110: dd11 55bd 4234 d73d 2002 86bc ae6a 8c3d
00000120: 120c 2b3e 76c4 75bd 77fe 473d 2584 ef3d
00000130: 731b f73d 3e2f 123e a609 69bd d522 bc3d
00000140: c1dc 1c3d a42f c23d 6a45 133e 89fc cabd
00000150: 094a d5bc 06ae 083e 46de 783d 8383 913d
00000160: 6064 ea3b 7976 893d ae39 8d3d 72c4 16be
00000170: 3ea6 c7bd a845 d53c d8ee f9bc ceb5 343d
00000180: 96aa 1e3e 8cab a4bd 6e94 5bbd e0b0 243e
00000190: f59a cc3d 253f 91bd 6fd0 7abd cd5c 2cbe
000001a0: eac7 16be fd9f 313e da27 ce3d 1464 823c
000001b0: b10d e5bd 5998 96bd 002c ebbd 9020 f13d
000001c0: 7115 e33d 7355 78bd 0e73 0cbd 243e 013e
000001d0: 870f e9bd 6398 1ebe edae 363e 7c83 04be
000001e0: 2831 e7bd 3143 253e e02d 853d 3755 d53d
000001f0: 8d58 1a3e 2593 0dbe 9e76 1c3e 1280 2b3e
00000200: 94db ca3b bdc5 9d3c 4538 193e 20cc 033e
00000210: ac9d 053c 1d2c 403d 4459 1f3e e0c6 d2bd
00000220: 4f31 d2ba f1f7 0c3e 9065 32be 3603 fb3d
00000230: 20a9 36be 7a4c 873d b8a2 983b 2606 f83d
00000240: a419 34be fe6a 31be 5e0b a9bd 5349 11be
00000250: 5686 25be 8315 533d b677 843d 1c7a 203e
00000260: 3632 51bd 7e0c 05bd 0350 43be 8b97 fabd
00000270: 9815 c9bd 9940 1cbe 0a1d 8d3d c67e 803d
00000280: 9494 98ba 0523 21bd 533c 2fbe 812e bbbd
00000290: 41fa b43c 4804 0bbe 6ffa cd3d 46ef 273e
000002a0: 6dfa 2ebe 9df5 edbd 335a 0b3e 6d1e 183d
000002b0: d9b9 33bc 8325 153d 97a0 213e c2bb b7bd
000002c0: 2054 2c3e 0540 b83d edd3 193e 337e d4bd
000002d0: a89c eebb 4a6e 0abe 459e dd3d 587b 4a3d
000002e0: 9c42 c03c 1c76 cebd 7729 263d 177b eebd
000002f0: 4951 153d a97b a73d 183f 15be cae2 e6bc
00000300: d8e1 fcbd 5466 e63d 2507 85bb 67b0 2a3e
00000310: 75ae 0dbe e544 57bd dc43 2f3e bf0a 98bd
00000320: 5c4a 063d 67c7 9cbd 0692 a33d 0005 22be
00000330: 1d86 16be 6878 8f3d b171 29be 3b37 83bd
00000340: 2e34 2bbe cd93 8e3d c475 59bd df88 24bd
00000350: 0896 fa3d 35ef a13d c2ad e83d d273 c4bc
00000360: eb9d ce3d bef5 003e 0b04 c83d 5538 d1bd
00000370: 17d3 2dbd f775 11bd ff0a 2bbe ffae 9ebd
00000380: 3cd4 6dbc 9e37 11bc a093 ac3c 3989 4ebd
00000390: 95ad ecbd 226a e33d 19de 28be c94d 9dbd
000003a0: 20d1 53bd 7266 28be ac45 c6bc 8d5b aa3d
000003b0: cbbd 21be bb45 94bc a304 033d 9b55 18be
000003c0: e094 9a3d 49f5 2e3e fed4 bb3d ea57 313e
000003d0: 19c3 803d 02f8 1b3e c15e fa3d 51ce af3d
000003e0: e333 14be 2f74 e6bd 1a1a 5fbd aac4 f6bd
000003f0: 1197 b33c fd26 a03c a636 fbbd 6cc2 d5bb

fc2.bias f4 [16]
0.045190483 -0.1517502 0.15226212 0.08779594 0.15691754 -0.13431318 -0.161992 0.1485763
-0.06822953 0.06499496 -0.16313146 -0.020897258 0.019331537 0.009666639 0.025129583 -0.0604752
00000000: a819 393d 6864 1bbe 9aea 1b3e 5cce b33d
00000010: feae 203e 6589 09be 3be1 25be 6324 183e
00000020: ecbb 8bbd 141c 853d ef0b 27be ba30 abbc
00000030: 2c5d 9e3c d360 1e3c 8edc cd3c d8b4 77bd

fc3.weight f4 [1, 16]
0.013355036 -0.09000248 0.038609494 0.1332641 -0.0050217593 0.009944171 0.011665016 0.024665138
-0.040607564 0.094756745 -0.1620552 0.18323067 -0.182587 0.006232324 0.0009974828 0.21668729
00000000: 15cf 5a3c 3853 b8bd fd24 1e3d 6276 083e
00000010: 928d a4bb e0ec 223c a01e 3f3c 8b0e ca3c
00000020: 1e54 26bd d30f c23d ccf1 25be d2a0 3b3e
00000030: 16f8 3abe 8638 cc3b f8bd 823a 46e3 5d3e
